[2021-12-01 14:11:45,359][base_learner.py][line: 333][    INFO] [RANK0]: DI-engine DRL Policy
SACRLModel(
  (_act): ReLU()
  (actor_encoder): BEVSpeedConvEncoder(
    (_relu): ReLU()
    (_model): Sequential(
      (0): Conv2d(5, 64, kernel_size=(3, 3), stride=(2, 2))
      (1): ReLU()
      (2): Conv2d(64, 128, kernel_size=(3, 3), stride=(2, 2))
      (3): ReLU()
      (4): Conv2d(128, 256, kernel_size=(3, 3), stride=(2, 2))
      (5): ReLU()
      (6): Flatten(start_dim=1, end_dim=-1)
    )
    (_mid): Linear(in_features=2304, out_features=256, bias=True)
  )
  (critic_encoder): BEVSpeedConvEncoder(
    (_relu): ReLU()
    (_model): Sequential(
      (0): Conv2d(5, 64, kernel_size=(3, 3), stride=(2, 2))
      (1): ReLU()
      (2): Conv2d(64, 128, kernel_size=(3, 3), stride=(2, 2))
      (3): ReLU()
      (4): Conv2d(128, 256, kernel_size=(3, 3), stride=(2, 2))
      (5): ReLU()
      (6): Flatten(start_dim=1, end_dim=-1)
    )
    (_mid): Linear(in_features=2304, out_features=256, bias=True)
  )
  (actor): Sequential(
    (0): Linear(in_features=512, out_features=512, bias=True)
    (1): ReLU()
    (2): ReparameterizationHead(
      (main): Sequential(
        (0): Linear(in_features=512, out_features=512, bias=True)
        (1): ReLU()
      )
      (mu): Linear(in_features=512, out_features=2, bias=True)
      (log_sigma_layer): Linear(in_features=512, out_features=2, bias=True)
    )
  )
  (_twin_encoder): BEVSpeedConvEncoder(
    (_relu): ReLU()
    (_model): Sequential(
      (0): Conv2d(5, 64, kernel_size=(3, 3), stride=(2, 2))
      (1): ReLU()
      (2): Conv2d(64, 128, kernel_size=(3, 3), stride=(2, 2))
      (3): ReLU()
      (4): Conv2d(128, 256, kernel_size=(3, 3), stride=(2, 2))
      (5): ReLU()
      (6): Flatten(start_dim=1, end_dim=-1)
    )
    (_mid): Linear(in_features=2304, out_features=256, bias=True)
  )
  (critic): ModuleList(
    (0): Sequential(
      (0): Linear(in_features=514, out_features=512, bias=True)
      (1): ReLU()
      (2): RegressionHead(
        (main): Sequential(
          (0): Linear(in_features=512, out_features=512, bias=True)
          (1): ReLU()
        )
        (last): Linear(in_features=512, out_features=1, bias=True)
      )
    )
    (1): Sequential(
      (0): Linear(in_features=514, out_features=512, bias=True)
      (1): ReLU()
      (2): RegressionHead(
        (main): Sequential(
          (0): Linear(in_features=512, out_features=512, bias=True)
          (1): ReLU()
        )
        (last): Linear(in_features=512, out_features=1, bias=True)
      )
    )
  )
)
[2021-12-01 14:16:13,069][base_learner.py][line: 333][    INFO] [RANK0]: === Training Iteration 0 Result ===
[2021-12-01 14:16:13,070][learner_hook.py][line: 224][    INFO] 
+-------+------------+----------------+----------------+-----------------+-----------------+--------------+--------------+--------------------+---------------+---------------+-----------+--------------+------------------+----------------------+
…
